models/hey_jarvis_v0.1.onnx (onnx, 413521 bytes, 9 tensors)

1.weight f4 [64, 1536]
0	0xbdb7e42e	-0.08979069
1	0xbc1a4167	-0.009415007
2	0x3deb40aa	0.11486943
3	0x3d8fa635	0.07014123
4	0xbd47d6f0	-0.048788965
5	0x3ca49c29	0.020093994
6	0x3e064327	0.13111554
7	0x3c5e1662	0.013555141
8	0xbe1654ea	-0.1468083
9	0x3e909849	0.28241184
10	0xbddeb365	-0.108740605
11	0xbc55011f	-0.013000756
12	0xbd6b6490	-0.05746895
13	0x3dbe675e	0.092970595
14	0x3d030820	0.03199017
15	0x3d98a8a1	0.074540384
16	0x3c9228c9	0.017841714
17	0xbe1b64c5	-0.1517516
18	0x3d270f0e	0.04078584
19	0x3e01efd7	0.12689148
20	0x3dfd9580	0.123820305
21	0x3c441ae8	0.011969306
22	0x3dc516e5	0.096235074
23	0xbe462dd0	-0.19353414
24	0xbd94b412	-0.07260908
25	0xbcdaf9c2	-0.026730422
26	0xbd95032b	-0.07275995
27	0xbda7e83c	-0.08198592
28	0x3e465e66	0.19371948
29	0x3df4b347	0.11948257
30	0xbdc5e8fc	-0.09663579
31	0x3e6af475	0.22944815
32	0xbd8871df	-0.06662344
33	0x3df6e6b5	0.120557226
34	0x3d1b9fc4	0.03799416
35	0x3d1dd467	0.03853264
36	0x3df21601	0.11820603
37	0xbd729e43	-0.05923296
38	0x3bbd7936	0.0057822717
39	0x3e5217b3	0.20516853
40	0xbd3a3525	-0.04546084
41	0x3df81850	0.12114012
42	0x3d483e73	0.04888768
43	0xbe2327a9	-0.15933098
44	0x3db1bbbb	0.08678385
45	0x3e129282	0.14313701
46	0xbdef1920	-0.11674714
47	0xbdf4d377	-0.11954396
48	0xbc16fe10	-0.009215847
49	0xbe1a0373	-0.15040378
50	0xbe0b5348	-0.13605988
51	0x3d7f2f87	0.062301185
52	0x3cae09e3	0.021244949
53	0xbe1cf207	-0.15326701
54	0xbd0dbbd6	-0.034602962
55	0xbc13264c	-0.008981299
56	0xbc279f98	-0.010230921
57	0xbd9e58f4	-0.0773181
58	0xbe64803b	-0.22314541
59	0xbe5fb6ac	-0.21847028
60	0x3db57293	0.08859744
61	0x3e09a4db	0.13441794
62	0x3dfc9e3a	0.12334867
63	0xbac939e5	-0.0015352337
64	0xba92d414	-0.001120212
65	0xbc8ddbd1	-0.01731673
66	0x3d98319a	0.07431336
67	0xbdf1c2ac	-0.11804709
68	0x3d91f6ff	0.07127189
69	0xbd930eb2	-0.07180537
70	0x3e29fd28	0.16600478
71	0x3dbab585	0.09116653
72	0xbe2f0e7d	-0.1709537
73	0xbdde453e	-0.10853051
74	0xbba0484a	-0.00489143
75	0x3d7a9967	0.061181452
76	0xb9087d8f	-0.00013016745
77	0xbe0a8782	-0.13528255
78	0xbd71eb33	-0.059062194
79	0xbd95cf09	-0.073148794
80	0xbdf2bbb6	-0.11852209
81	0x3e23f73e	0.16012284
82	0xbc8b5cc4	-0.017012008
83	0x3d09fded	0.033689428
84	0x3e14add9	0.14519443
85	0x3d5c9d8b	0.053861182
86	0x3dc76a92	0.097371235
87	0xbd799b1f	-0.06093895
88	0xbd5d4273	-0.05401845
89	0x3e3a75d9	0.18209018
90	0xbc936076	-0.017990332
91	0x3d1b12cb	0.03785972
92	0xbcba994f	-0.022778181
93	0xbd188957	-0.037240352
94	0xbccd402a	-0.02505501
95	0x3d9a68f4	0.075395495
96	0xbd28ebb2	-0.0412404
97	0xbd610bfa	-0.054943062
98	0x3d86bba1	0.06578756
99	0xbd9a2b75	-0.0752782
100	0xbdf38ae1	-0.118917234
101	0x3d4a770d	0.049429942
102	0x3dae86f0	0.08521831
103	0x3d98e457	0.07465427
104	0x3d16f8bd	0.03685831
105	0x3e8bb26b	0.2728456
106	0xbdec5854	-0.11540285
107	0xbe22e41d	-0.15907331
108	0xbcea7bd0	-0.028623492
109	0xbcc315aa	-0.023814041
110	0xbdb45b3d	-0.08806465
111	0x3da2226e	0.07916723
112	0x3c96431f	0.018342553
113	0xbaa7d64b	-0.0012804953
114	0xbd8e11e2	-0.069370046
115	0x3bdc58da	0.006724459
116	0x3d90d69b	0.07072183
117	0x3d3b83b4	0.0457799
118	0xbd989674	-0.07450572
119	0x3c33df28	0.010978498
120	0xbe3af4a5	-0.18257387
121	0xbdc0ead0	-0.09419787
122	0xbd62adf8	-0.05534169
123	0xbe076515	-0.13222153
124	0x3e0ca8bf	0.13736247
125	0xbba71890	-0.0050993636
126	0xbe38a4f1	-0.1803167
127	0x3e5c6ee3	0.21526675
128	0xbe012b17	-0.12614094
129	0x3db4c0a9	0.088258095
130	0x3c8fa3a5	0.017534086
131	0x3db3fe44	0.08788732
132	0x3dd8c7f1	0.10585011
133	0xbc63d348	-0.013905354
134	0x3cf611b7	0.030037744
135	0x3e3d3ec6	0.18480977
136	0xbdc96206	-0.098331496
137	0x3d9d92d6	0.07694022
138	0x3d9a9027	0.07547026
139	0xbd9c64ff	-0.07636451
140	0xbc9fdd19	-0.019514607
141	0xbc1f182d	-0.009710354
142	0xbe0bd1a4	-0.1365419
143	0x3c2aa16a	0.010414461
144	0xbd1edc3a	-0.038784243
145	0xbd847901	-0.06468392
146	0xbdc0b725	-0.09409932
147	0xbd270ff3	-0.040786695
148	0xbc33f675	-0.010984053
149	0xbd223d0c	-0.039609
150	0xbd090793	-0.03345449
151	0xba09e470	-0.0005260175
152	0xbe10109d	-0.14068837
153	0xbda31040	-0.07962084
154	0xbe0c7d3b	-0.13719647
155	0xbe65f64a	-0.22457233
156	0xbbda186f	-0.0066557447
157	0x3d590ab5	0.052988727
158	0xbca1728c	-0.01970794
159	0xbdb99469	-0.0906151
160	0x3dee6d4f	0.11641943
161	0x3d9744a5	0.0738614
162	0x3b381ba6	0.0028092652
163	0xbe0701b6	-0.13184246
164	0xbd5e5cde	-0.054287784
165	0xbd89d779	-0.06730551
166	0x3e20d9d5	0.15708096
167	0x3d90d46e	0.07071768
168	0xbdeafe09	-0.114742346
169	0xbe1ba684	-0.1520024
170	0xbd66787c	-0.056267247
171	0xbc2d954d	-0.010594678
172	0xbd323250	-0.043505013
173	0xbc85e5fc	-0.016345017
174	0xbdc74ac1	-0.09731055
175	0xbd96143d	-0.07328079
176	0x3d11ec1f	0.035625573
177	0x3e1ad2fb	0.15119545
178	0x3d1e3cd2	0.03863222
179	0x3e0f1a1d	0.13974805
180	0x3d0f258b	0.034947913
181	0x3dcb5436	0.09928171
182	0x3dd8f2df	0.10593199
183	0xbdb7dcd4	-0.089776665
184	0xbda713ad	-0.0815805
185	0x3dd331d5	0.10312239
186	0xbd29b6ef	-0.041434225
187	0x3d5735de	0.052541606
188	0xbcb63573	-0.022242283
189	0xbdb0c0af	-0.086305015
190	0x3d238b5c	0.039927825
191	0x3d91bd7b	0.07116219
192	0x3d60248e	0.05472236
193	0xbc4ac6b2	-0.012376474
194	0xbd39acad	-0.045330692
195	0xbdecc848	-0.11561638
196	0xbdf2d799	-0.11857528
197	0x3c7a4f90	0.015277758
198	0xbcc93f42	-0.024566296
199	0x3d5588fc	0.05213259
200	0x3d58c688	0.05292371
201	0x3dcfa706	0.10139279
202	0xbe0bc48d	-0.13649197
203	0xbe19f0b8	-0.15033233
204	0xbdf21129	-0.11819679
205	0xbddc0447	-0.10743003
206	0xbcbf988f	-0.023388175
207	0x3ca37ff5	0.019958476
208	0x3d4bd6c1	0.049765352
209	0x3e1d9042	0.15387061
210	0xbcbb1c09	-0.022840517
211	0xbdde55a7	-0.10856181
212	0x3d39ca7d	0.045359123
213	0x3d6d19ec	0.05788605
214	0xbdbc165b	-0.091839515
215	0x3d847705	0.06468014
216	0xbe27da40	-0.1639185
217	0xbd5bacd2	-0.05363161
218	0xbd7faec4	-0.06242253
219	0xbde21d9d	-0.110408045
220	0xbb351a0e	-0.0027633938
221	0xbd08a6c7	-0.033362176
222	0xbe07def3	-0.13268642
223	0x3e31505b	0.1731581
224	0xbdd3f8ea	-0.10350211
225	0x3d985f62	0.07440068
226	0x3da0add1	0.07845653
227	0x3d2dcd68	0.04243222
228	0x3de960c9	0.113954134
229	0x3d584289	0.052797828
230	0x3e13b6ae	0.14425156
231	0x3e1f2f9c	0.15545505
232	0xbe4dea78	-0.20108974
233	0x3d179414	0.037006453
234	0x3dcd764f	0.10032331
235	0xbe160cba	-0.14653292
236	0xbdbeb4aa	-0.09311803
237	0xbe11362a	-0.14180818
238	0xbe20b32e	-0.15693352
239	0xbc9f9969	-0.019482331
240	0xbcce9c1c	-0.025220923
241	0xbc9bbb8c	-0.019010328
242	0xbd507513	-0.0508929
243	0x3df69f8a	0.120421484
244	0xbd4d3ead	-0.0501086
245	0x3d61ab7c	0.05509518
246	0x3c12882b	0.008943598
247	0xbdd4dcc1	-0.10393668
248	0xbe0eebc4	-0.13957125
249	0xbd0cf301	-0.034411434
250	0xbdb3e2b4	-0.087834746
251	0xbe1c0ca7	-0.15239201
252	0x3d8f348c	0.069924444
253	0xba1a493a	-0.00058855454
254	0x3db69385	0.08914856
255	0xbde37e69	-0.11108095

1.bias f4 [64]
0	0x3d8bceb1	0.06826533
1	0x3cd3f309	0.025872724
2	0x3d906145	0.07049803
3	0x3d11891a	0.03553114
4	0x3d1758f9	0.036950085
5	0x3dc08402	0.094001785
6	0x3d09a6b9	0.033606265
7	0x3d25d9d4	0.04049094
8	0x3d810103	0.06299021
9	0x3d558034	0.052124217
10	0x3d5078a6	0.05089631
11	0x3d8924dd	0.06696484
12	0x3b849962	0.004046605
13	0x3d7e3330	0.062060535
14	0x3db76e5a	0.08956595
15	0x3d1c0f85	0.038100738
16	0x3db8ba01	0.090198524
17	0x3d9870f1	0.07443417
18	0x3d5510be	0.05201792
19	0x3d995dc8	0.074885905
20	0x3ddb0766	0.106947705
21	0x3d6251de	0.055253856
22	0x3dc3526b	0.09537204
23	0x3d588852	0.05286438
24	0x3de1b8da	0.11021586
25	0x3d5a6303	0.05331708
26	0x3d42cbc4	0.047557607
27	0x3d0a4008	0.03375247
28	0x3cd1cc1e	0.025610026
29	0x3d75198c	0.059838817
30	0x3cd56376	0.026048403
31	0x3d75190c	0.05983834
32	0x3d4f7db4	0.05065699
33	0x3c31c256	0.010849556
34	0x3d8ca30f	0.068670385
35	0x3dcfdc78	0.10149473
36	0x3d88c509	0.066782065
37	0x3d64dcb2	0.055874534
38	0x3d0d8824	0.034553662
39	0x3d9ef5b2	0.077617064
40	0x3d6dfacb	0.058100503
41	0x3d06c76b	0.032905024
42	0x3d6dc65a	0.05805049
43	0x3d418b94	0.047252253
44	0x3d25e418	0.04050073
45	0x3d3fa4aa	0.046787895
46	0x3c14a5af	0.009072705
47	0x3b1a631b	0.0023557607
48	0x3d88f987	0.066882186
49	0x3d752a90	0.059855044
50	0x3d680513	0.056645464
51	0x3d9d37ba	0.076766446
52	0x3d953b9c	0.0728676
53	0x3d891d93	0.06695094
54	0x3d77ec48	0.06052807
55	0xbc0f9d22	-0.008765491
56	0x3d458285	0.048220176
57	0x3d3c0c5c	0.045910224
58	0x3c06c0f8	0.008224718
59	0x3d1b04f1	0.03784651
60	0x3d915461	0.07096172
61	0x3d88ba60	0.06676173
62	0x3dac283f	0.08406114
63	0x3db06bd3	0.08614316

2.weight f4 [64]
0	0x3f88f3e1	1.0699426
1	0x3f927de0	1.1444664
2	0x3f882ce5	1.0638701
3	0x3f9b97d4	1.2155709
4	0x3f8e77f7	1.113036
5	0x3f76dbf0	0.9642935
6	0x3f9934b3	1.1969208
7	0x3f8d0df5	1.1019884
8	0x3f5b30a3	0.8562109
9	0x3f858822	1.043217
10	0x3f919d0f	1.1376055
11	0x3f83eeca	1.0307248
12	0x3f956417	1.167117
13	0x3f71de43	0.9447977
14	0x3f804f84	1.0024266
15	0x3f9c9428	1.2232714
16	0x3fa0e6e5	1.2570463
17	0x3f4cd83d	0.80017453
18	0x3f6d9235	0.9280122
19	0x3f570251	0.8398791
20	0x3f85320a	1.0405896
21	0x3f9534ca	1.1656735
22	0x3f8c2f33	1.0951904
23	0x3f806158	1.0029707
24	0x3f9892f9	1.1919852
25	0x3f9ff9a0	1.2498055
26	0x3f8a8a01	1.0823365
27	0x3f9c2ff4	1.2202134
28	0x3f84b6cf	1.0368289
29	0x3f8a4ab1	1.0804044
30	0x3f818cdc	1.0121112
31	0x3f9cb45a	1.2242539
32	0x3f999be3	1.2000698
33	0x3f909810	1.1296406
34	0x3f6c5b89	0.9232717
35	0x3f78a843	0.97131747
36	0x3f973530	1.1813107
37	0x3f9265f7	1.1437367
38	0x3f82d49b	1.0221132
39	0x3f7ed9e3	0.9955122
40	0x3f730b46	0.94939077
41	0x3f8ab923	1.0837749
42	0x3f844374	1.0333085
43	0x3f868008	1.0507822
44	0x3f721751	0.9456683
45	0x3f9f4c54	1.2445168
46	0x3f90ac33	1.1302551
47	0x3f8baaf5	1.0911547
48	0x3f80da95	1.0066706
49	0x3f697c14	0.91204953
50	0x3f82de93	1.0224174
51	0x3f7c6483	0.9859087
52	0x3f6bc135	0.92091686
53	0x3f7929de	0.9732951
54	0x3f9199e1	1.1375085
55	0x3f83301e	1.0249059
56	0x3f8614cc	1.0475097
57	0x3f905fca	1.1279233
58	0x3f8f423e	1.119209
59	0x3f53f8ec	0.828017
60	0x3f935ed5	1.1513315
61	0x3f909e15	1.1298243
62	0x3f8d743a	1.1051095
63	0x3f872cf2	1.0560591

2.bias f4 [64]
0	0xbc509fb5	-0.01273339
1	0xbd771b47	-0.060328748
2	0xbdc6fdad	-0.097163536
3	0x3daf89f3	0.085712336
4	0x3d2b775d	0.04186188
5	0xbe04e981	-0.129797
6	0x3d9d1fc7	0.07672077
7	0xbd446c7e	-0.04795503
8	0xbe16b41c	-0.14717144
9	0xbd8d29a0	-0.06892705
10	0x3d1524c8	0.03641203
11	0xbd81dc8f	-0.06340896
12	0xbd865a6b	-0.065602146
13	0xbe0a73c5	-0.13520725
14	0xbd1d1bbe	-0.038356535
15	0x3e1358b4	0.14389306
16	0xbcc3d1a4	-0.023903675
17	0xbe444c3b	-0.19169705
18	0xbe402add	-0.18766351
19	0xbe50ef1e	-0.20403716
20	0xbd4a03fe	-0.049320213
21	0xbd31f851	-0.043449704
22	0xbd6d8c29	-0.057994995
23	0xbd20ce33	-0.039259147
24	0xbd587873	-0.052849244
25	0xbcebfb14	-0.028806247
26	0xbc98e0ae	-0.018661823
27	0x3dcccbd0	0.09999812
28	0xba6a64b9	-0.00089414004
29	0xbde5f6a2	-0.11228682
30	0x3bfd5ac8	0.0077317692
31	0x3d18c63e	0.037298433
32	0xbd9a4006	-0.07531743
33	0x3dd568b2	0.1042036
34	0xbe361a8a	-0.17783561
35	0xbddc78be	-0.10765217
36	0xbd64bbd0	-0.055843174
37	0xbd6197db	-0.05507646
38	0xbdea986a	-0.11454852
39	0xbd9ccfcb	-0.07656821
40	0xbe2efd47	-0.17088805
41	0xbdbc789a	-0.092026904
42	0xbdcb3e4a	-0.0992399
43	0xbd693ce2	-0.056942828
44	0xbdb10f74	-0.086455256
45	0xb8746210	-5.826546e-05
46	0xbcb9b462	-0.022669021
47	0xbd0fd9d6	-0.035119854
48	0xbdfbd71c	-0.12296888
49	0xbe30d364	-0.17268139
50	0xbe07963f	-0.13240908
51	0xbde2723f	-0.11056947
52	0xbd8e6ee8	-0.069547474
53	0xbe1eb7a0	-0.15499735
54	0xbd48226d	-0.048860956
55	0xbdb6e9bd	-0.08931301
56	0xbdac28c1	-0.08406211
57	0xbe13b31c	-0.14423794
58	0x3cff9cc7	0.031202687
59	0xbe7f8bf8	-0.24955738
60	0xbc9a07f4	-0.01880262
61	0x3be48176	0.0069734408
62	0xbd4b4243	-0.04962374
63	0xbe2b4117	-0.16724049

4.weight f4 [64, 64]
0	0xbea6357d	-0.32462683
1	0x3e540b51	0.20707442
2	0xbdd90542	-0.10596706
3	0x3e207662	0.1567016
4	0xbddd4166	-0.108034894
5	0xbcc4d4fa	-0.024027336
6	0x3e937d3d	0.28806487
7	0x3b5d45da	0.0033763559
8	0x3b14ac60	0.0022685751
9	0x3df3784e	0.11888181
10	0x3da266ef	0.07929789
11	0x3d4f55e4	0.05061902
12	0x3e011b6b	0.12608115
13	0xbd815824	-0.063156396
14	0xbde58ae9	-0.11208136
15	0x3e725b56	0.23667654
16	0xbcd04236	-0.025422197
17	0x3d840ef2	0.06448163
18	0xbdfe3451	-0.12412322
19	0x3e16b540	0.14717579
20	0x3e0580ea	0.13037458
21	0x3d7b3696	0.061331354
22	0xbcbd96cd	-0.023143196
23	0x3b135ed9	0.0022486954
24	0xbdff9431	-0.12479437
25	0xbe4e2b79	-0.20133771
26	0xbe2e07e9	-0.16995205
27	0x3e2083b2	0.15675238
28	0xbe460145	-0.19336422
29	0xbea3772c	-0.31926858
30	0xbc17356d	-0.009229046
31	0xbeac9e23	-0.337144
32	0x3b89a9b5	0.004201139
33	0x3d95b4e4	0.07309893
34	0xbcc57c85	-0.024107227
35	0xbd26f363	-0.040759455
36	0x3d1aa5a0	0.03775561
37	0xbd792d27	-0.060834076
38	0xbe2445af	-0.16042207
39	0x3c7f4270	0.015579805
40	0xbdc35890	-0.09538376
41	0x3ceadbe8	0.028669313
42	0x3dedc659	0.116100974
43	0xbbf23997	-0.007392119
44	0x3e0236e9	0.12716259
45	0x3d84d1c2	0.06485321
46	0x3e9f1685	0.3107187
47	0xbd914387	-0.07092958
48	0xbe24cbcb	-0.16093366
49	0xbdb3bacf	-0.08775865
50	0xbcc5e43d	-0.024156684
51	0x3e0370e3	0.12836032
52	0x3cccd9c8	0.02500619
53	0xbe5dac27	-0.21647702
54	0x3db2bab8	0.0872702
55	0x3d8b9329	0.06815178
56	0xbd85592b	-0.06511148
57	0xbd6b3ca9	-0.057430897
58	0x3ebe74eb	0.37198576
59	0x3c69b187	0.014263517
60	0x3a980adc	0.0011599916
61	0x3e3b823c	0.18311399
62	0xbda23d45	-0.079218425
63	0xbe254fec	-0.16143769
64	0x3e0cc2e4	0.1374622
65	0xbe7cd5b5	-0.24690898
66	0x3d9e4990	0.07728875
67	0x3ce9cd15	0.028540174
68	0xbdadea42	-0.08491947
69	0x3e3531e1	0.17694809
70	0xbc6f3023	-0.014598879
71	0x3e8c503c	0.27404964
72	0xbbd7dbe4	-0.0065874923
73	0xbd7f6ed6	-0.06236156
74	0xbe27cc80	-0.16386604
75	0x3e2a894e	0.1665394
76	0x3ea74c47	0.32675382
77	0x3db2808d	0.08715925
78	0x3d533003	0.05155946
79	0xbe855183	-0.2603875
80	0x3e7ee75b	0.24892943
81	0x3da07368	0.07834512
82	0x3d920913	0.07130637
83	0x3dd52392	0.10407175
84	0x3e189bd4	0.14903194
85	0x3e0fd89d	0.14047475
86	0x3e647fda	0.22314397
87	0x3daf140c	0.085487455
88	0x3e0ab38f	0.13545059
89	0x3eabe3aa	0.3357213
90	0x3e8c08a0	0.2735033
91	0xbe11967c	-0.14217561
92	0xbde692fa	-0.11258502
93	0x3e1949b8	0.14969528
94	0xbdb7189f	-0.08940243
95	0x3e2c4117	0.16821705
96	0x3e67c377	0.22633158
97	0xbe63e7a4	-0.22256333
98	0x3c2d7665	0.0105873095
99	0xbc8a8cda	-0.016912866
100	0x3e02bbd7	0.12766968
101	0x3e4bdc71	0.1990831
102	0xbd81a4aa	-0.06330235
103	0x3cc74ab2	0.02432761
104	0x3c6a8e1f	0.014316111
105	0x3e016e7e	0.12639806
106	0x3e501fb7	0.20324598
107	0x3e1379c4	0.14401919
108	0x3e277040	0.16351414
109	0x3ddd3bf0	0.10802448
110	0xbdf428ca	-0.119218424
111	0xbdc1cded	-0.09463105
112	0x3d4548b8	0.048165053
113	0x3d5f4250	0.0545066
114	0x3e46303c	0.19354337
115	0xbd51e32f	-0.05124205
116	0x3e276088	0.16345417
117	0x3dcb3f0c	0.099241346
118	0x3e27be5f	0.16381215
119	0xbdea9d2d	-0.1145576
120	0x3dbc4eac	0.09194693
121	0xbdbe7380	-0.092993736
122	0xbe813231	-0.25233606
123	0xbdcee04b	-0.10101374
124	0x3e9b9478	0.3038671
125	0xbe2c1dce	-0.16808245
126	0x3e83722d	0.25673047
127	0x3dee2ab5	0.116292395
128	0x3de0f70d	0.10984621
129	0x3da1d7c1	0.0790248
130	0x3e7fc7ca	0.24978557
131	0xbdf944bb	-0.121713124
132	0x3e44e74d	0.19228859
133	0xbe034695	-0.12819894
134	0xbd8ecad9	-0.06972284
135	0xbd8e53f2	-0.06949605
136	0x3de7326a	0.112889126
137	0xbd55b56d	-0.052174974
138	0x3ebc8a77	0.3682439
139	0xbca34f49	-0.019935267
140	0x3c3cce16	0.011523744
141	0xbdb2abb7	-0.08724158
142	0x3d38819a	0.045045473
143	0xbe214b72	-0.15751436
144	0x3dc6267b	0.09675308
145	0xbdfa5a36	-0.122242376
146	0xbe08fcd1	-0.13377692
147	0xbe1addf3	-0.1512373
148	0xbd7a0eb7	-0.06104919
149	0x3e801ff6	0.25024384
150	0x3d03d1f4	0.03218265
151	0xbe1c74c0	-0.15278912
152	0xbe66bab7	-0.22532164
153	0x3d0b8382	0.034060962
154	0xbd3973e1	-0.045276526
155	0x3e855182	0.26038748
156	0x3e6aa8c2	0.22915938
157	0xbde7d35b	-0.1131961
158	0xbbfb708e	-0.0076733297
159	0xbe5edaad	-0.21763106
160	0x3d00ed71	0.03147644
161	0x3e3d7b31	0.18504025
162	0x3e36e646	0.1786128
163	0x3cc66684	0.024218805
164	0xbe323a66	-0.1740509
165	0xbd42c9b7	-0.04755565
166	0xbdb94282	-0.090458885
167	0xbe60cea3	-0.21953826
168	0x3cbfea95	0.023427287
169	0xbe13e240	-0.14441776
170	0xbe25cf5e	-0.16192386
171	0x3dbe1dfc	0.09283063
172	0x3e235ae3	0.1595264
173	0xbe9dfe02	-0.30857855
174	0x3ddb954a	0.10721834
175	0x3dd8d940	0.10588312
176	0xbbe032c1	-0.006841988
177	0x3e5ce35b	0.21571104
178	0xbcab2b75	-0.020894745
179	0xbd5c7f40	-0.053832293
180	0x3c9af255	0.018914381
181	0x3e6e2ec2	0.23260024
182	0xbe218bad	-0.15775938
183	0x3ed4c1d0	0.41554117
184	0xbdad3345	-0.084570445
185	0xbe00b4f5	-0.1256903
186	0x3ecc6018	0.39917064
187	0xbe182765	-0.14858778
188	0x3d78c702	0.060736664
189	0xbec7d75b	-0.3903149
190	0xbc923605	-0.017848024
191	0xbd88e6a2	-0.06684615
192	0xbe0c8d97	-0.13725887
193	0x3e2fba7c	0.17160982
194	0xbd2ee2e3	-0.042696845
195	0xbe6a4114	-0.22876388
196	0x3deb7154	0.11496225
197	0xbd788e96	-0.060682856
198	0x3e8bffc4	0.2734357
199	0xbd913994	-0.0709106
200	0xbe3a6546	-0.18202695
201	0x3e3c0cdb	0.18364279
202	0x3e2503e9	0.16114773
203	0xbc293e5b	-0.010329808
204	0xbd703a26	-0.058649205
205	0x3dcc22e8	0.09967595
206	0xbdab351e	-0.08359741
207	0x3d55c6c0	0.052191496
208	0xbe65de42	-0.22448066
209	0xbd9d40b3	-0.07678356
210	0xbc0d634d	-0.008629632
211	0x3d7211d0	0.05909902
212	0x3e0ec4de	0.13942286
213	0xbcc6bdde	-0.024260458
214	0xbe2ae036	-0.16687092
215	0x3e371112	0.17877606
216	0xbe0edbb7	-0.13951002
217	0xbea41f0b	-0.32054934
218	0xbe267bf3	-0.1625822
219	0x3ea2252e	0.3166899
220	0x3e0ee08d	0.13952847
221	0xbe33e353	-0.17567186
222	0xbd04ea44	-0.032449976
223	0xbe7386fe	-0.23781964
224	0xbec08272	-0.37599522
225	0x3e41d449	0.18928637
226	0x3d041a7e	0.032251827
227	0x3e0f6a70	0.14005446
228	0xbe0459e4	-0.12924916
229	0xbdd9327c	-0.10605332
230	0x3c697379	0.014248722
231	0x3e09116d	0.13385554
232	0xbe2a4e9a	-0.16631547
233	0xbda60f49	-0.08108384
234	0xb95d17a3	-0.00021085008
235	0xbe3e5715	-0.18587907
236	0x3d4801da	0.04882989
237	0xbe3c1b5c	-0.18369812
238	0x3e732a7d	0.23746677
239	0x3e159f9f	0.14611672
240	0xbd2f3a78	-0.04278037
241	0x3cdf7294	0.027276315
242	0xbe094e99	-0.13408889
243	0xbda9cd04	-0.08291057
244	0xbdae6b18	-0.0851652
245	0xbe714bfa	-0.23564139
246	0xbe6012f1	-0.21882226
247	0x3e410b2f	0.18851922
248	0x3d8a665a	0.06757803
249	0xbe470e86	-0.19439134
250	0x3cbf2211	0.023331674
251	0xbe30d013	-0.17266874
252	0xbd714d94	-0.058911875
253	0x3dbc82b8	0.0920462
254	0xbc8c90d0	-0.017158896
255	0xbe0b01ab	-0.13574855

4.bias f4 [64]
0	0x3d5d1e1a	0.053983785
1	0x3da7faac	0.08202109
2	0xbd94f7d2	-0.072738305
3	0x3b4e0453	0.0031435683
4	0x3d15c533	0.036565017
5	0xbb7773c9	-0.0037758222
6	0xbcf2b219	-0.02962594
7	0x3c804469	0.01565762
8	0x3da8c328	0.08240348
9	0x3ce7ecf7	0.028311236
10	0x3c61af6c	0.013774734
11	0x3e367594	0.1781829
12	0x3daed655	0.08536974
13	0xbdb12fa1	-0.086516626
14	0x3d84221c	0.06451818
15	0xbda1a715	-0.078931965
16	0xbc9371a9	-0.017998533
17	0x3cc5bc36	0.024137598
18	0xbe20a23f	-0.15686892
19	0xbdcec30f	-0.10095798
20	0x3ddc8be5	0.1076887
21	0x3e3b0bb0	0.18266177
22	0x3ddfd078	0.10928434
23	0xbde0854d	-0.10962925
24	0xbd1943ac	-0.037418053
25	0xbc935dce	-0.017989065
26	0x3d8520db	0.06500407
27	0xbc729701	-0.01480651
28	0x3e2999bf	0.16562556
29	0xbcf53982	-0.029934648
30	0xbdced835	-0.10099832
31	0x3c84affe	0.0161972
32	0xbd0a2e8e	-0.033735804
33	0xbd98692f	-0.07441937
34	0x3c457dfd	0.012053964
35	0xbd1e81a7	-0.038697865
36	0x3e170e7b	0.14751618
37	0xbda011f7	-0.078159265
38	0x3d53f96c	0.05175154
39	0x3d6e767c	0.058218464
40	0x3d66e111	0.056366984
41	0x3d573014	0.052536085
42	0x3d744abf	0.059641596
43	0xbd54828f	-0.051882323
44	0x3de5f714	0.11228767
45	0x3d25be8e	0.04046493
46	0x3dd2ca9e	0.102925524
47	0x3c80c3a2	0.015718285
48	0x3b7f2a5c	0.003893516
49	0x3e1a7ee9	0.15087475
50	0x3e35de1d	0.1776051
51	0x3dc8a0d3	0.097963
52	0xbd0c79c5	-0.034295816
53	0x3d9a341b	0.075294696
54	0xbc96f5b9	-0.018427717
55	0x3d9c0211	0.07617582
56	0x3de949ae	0.113910064
57	0xbb6da803	-0.0036263473
58	0x3dc004ed	0.093759395
59	0xbd26ca1a	-0.040720083
60	0x3d38d2e4	0.045122996
61	0x3e0e6f7e	0.13909718
62	0x3c1aa003	0.009437564
63	0xbe03eda3	-0.1288362

5.weight f4 [64]
0	0x3f9af335	1.2105471
1	0x3fb8793a	1.4411995
2	0x3fba47e0	1.4553185
3	0x3f9cb57d	1.2242886
4	0x3fad1af7	1.3523854
5	0x3f9d63c4	1.2296071
6	0x3fa703d3	1.3048042
7	0x3fa3f231	1.2808286
8	0x3f919b00	1.1375427
9	0x3f9bd0ad	1.2173058
10	0x3f8cd682	1.1002963
11	0x3f94ddf8	1.163024
12	0x3f8f2738	1.1183844
13	0x3fa43bd0	1.2830753
14	0x3f99bdd2	1.2011054
15	0x3fa79d2d	1.3094841
16	0x3f94d045	1.1626059
17	0x3f8d4b5c	1.1038623
18	0x3fb847ab	1.4396871
19	0x3fb19aee	1.3875406
20	0x3faa5788	1.3307962
21	0x3f31e0de	0.69483745
22	0x3facf664	1.3512692
23	0x3fd5168e	1.6647508
24	0x3fac4738	1.3459234
25	0x3fb3ea3b	1.4055856
26	0x3f74d7d3	0.9564182
27	0x3f839762	1.0280573
28	0x3f94236d	1.1573311
29	0x3f9b5fd7	1.2138623
30	0x3fb89639	1.4420844
31	0x3f9aa96b	1.2082952
32	0x3f786078	0.970222
33	0x3f9e9d40	1.2391739
34	0x3f8eaa33	1.1145691
35	0x3fad8224	1.3555341
36	0x3fb21d9d	1.3915287
37	0x3faef6ae	1.3669031
38	0x3fb03630	1.3766537
39	0x3fa0af72	1.2553542
40	0x3fac83d7	1.3477734
41	0x3f45b5ae	0.77230346
42	0x3f6fc32e	0.93657196
43	0x3f97b076	1.1850727
44	0x3faf0523	1.3673443
45	0x3f9a5e8a	1.2060101
46	0x3f9b5005	1.2133795
47	0x3fb478db	1.4099382
48	0x3fa75206	1.3071907
49	0x3f8bf30a	1.0933545
50	0x3f990005	1.1953131
51	0x3f3c4bf2	0.73553383
52	0x3faa28d8	1.3293715
53	0x3f94143f	1.1568679
54	0x3f91dfe6	1.1396453
55	0x3f96f370	1.1793041
56	0x3f936c47	1.1517419
57	0x3f90e37e	1.1319425
58	0x3f8d7bc4	1.1053395
59	0x3fd88111	1.6914388
60	0x3fbe7ac1	1.4881212
61	0x3f7cc584	0.98738885
62	0x3fa4e98a	1.288377
63	0x3f8e59df	1.1121176

5.bias f4 [64]
0	0x3dca468c	0.09876737
1	0x3e742a46	0.23844251
2	0x3d988788	0.074477255
3	0xbb734136	-0.0037117726
4	0x3da6767a	0.08128066
5	0x3dc07565	0.09397391
6	0x3e58b4d8	0.21162736
7	0x3d1ac430	0.037784755
8	0x3c709e26	0.014686143
9	0x3e28a16c	0.16467828
10	0x3dec2dbd	0.115321614
11	0x3e3853b1	0.18000676
12	0x3dec7e9c	0.11547586
13	0xbce92100	-0.028458118
14	0xbd6cbc95	-0.057797033
15	0x3d81285f	0.06306528
16	0xbcab8f09	-0.020942228
17	0xbbf2512b	-0.00739493
18	0x3e43a1ac	0.19104642
19	0xbbed7799	-0.007246923
20	0x3da66193	0.081240796
21	0xbe9e7f4e	-0.309565
22	0x3e30c379	0.17262067
23	0x3e4fd8f5	0.20297606
24	0x3e3b9a93	0.18320684
25	0x3dfa47e3	0.122207426
26	0xbe0806e0	-0.13283873
27	0xbd87a049	-0.06622369
28	0x3df7095f	0.12062334
29	0x3e339e9f	0.17540978
30	0x3d87c9a5	0.066302575
31	0x3df42605	0.11921314
32	0xbd615096	-0.055008493
33	0x3cb76849	0.022388594
34	0x3df3e869	0.11909563
35	0x3da63dfe	0.08117293
36	0x3db2e942	0.08735897
37	0x3d95249a	0.07282372
38	0x3d761957	0.06008276
39	0x3d908a76	0.07057659
40	0x3da793be	0.081824765
41	0xbe280e10	-0.16411614
42	0xbdd9cb12	-0.10634436
43	0x3dbfd05e	0.09365915
44	0x3e09117d	0.13385577
45	0x3da20cfc	0.07912633
46	0x3944593a	0.00018725256
47	0x3ddcdf30	0.10784757
48	0x3d3597fd	0.0443344
49	0x3dbd25ad	0.09235702
50	0x3e2f9513	0.17146711
51	0xbe59829a	-0.21241227
52	0x3d85f4b2	0.065408126
53	0xbbe7ea5c	-0.0070774984
54	0x3dd2c6a3	0.10291793
55	0xbd5d897c	-0.054086193
56	0xbbdfbfcb	-0.0068282834
57	0x3e13082d	0.14358588
58	0x3deb1f5c	0.11480591
59	0x3e45f685	0.19332321
60	0x3e165159	0.14679469
61	0xbd94ba1c	-0.0726206
62	0x3d511f8e	0.051055484
63	0x3de39035	0.1111149

7.weight f4 [1, 64]
0	0x3e5f2786	0.2179242
1	0xbec55143	-0.3853856
2	0x3f0b9074	0.5451729
3	0x3e99e961	0.30060866
4	0x3ec3dc65	0.38254085
5	0xbe965217	-0.29359505
6	0xbeac426b	-0.33644423
7	0x3ec6b30e	0.38808483
8	0x3e3f7992	0.18698719
9	0xbe860596	-0.26176137
10	0x3e5f4f8a	0.21807685
11	0x3e236703	0.15957265
12	0xbe6a56bf	-0.22884654
13	0xbeb9a2c3	-0.3625699
14	0xbe9f5da7	-0.3112614
15	0x3ecf37fe	0.40472406
16	0xbe8a3149	-0.26990727
17	0x3e0a08ba	0.13479891
18	0x3ef18d16	0.47177953
19	0xbec92403	-0.39285287
20	0x3ec2afe8	0.3802483
21	0x3d165973	0.0367064
22	0xbeca0916	-0.39460057
23	0xbefa88ac	-0.48932397
24	0x3eb7525e	0.3580503
25	0xbee3e6a3	-0.445119
26	0x3da220dc	0.07916424
27	0x3e0074d5	0.12544568
28	0x3e54d6cc	0.20785064
29	0x3e85a531	0.26102594
30	0xbed253bf	-0.41079518
31	0x3e6ee4ac	0.23329419
32	0x3ddf99f7	0.10918038
33	0x3ea6085f	0.32428262
34	0xbe2bb386	-0.16767702
35	0xbeb8d957	-0.36103317
36	0x3edd27ab	0.43194327
37	0x3ed48e1a	0.41514665
38	0xbec2622b	-0.3796552
39	0x3e8bcae6	0.27303237
40	0x3ea60c10	0.32431078
41	0xbc865bd9	-0.016401218
42	0xbd2004e2	-0.039067157
43	0x3e938806	0.28814715
44	0x3eca13ec	0.39468324
45	0x3e8cfe3b	0.27537712
46	0x3e7029cc	0.23453444
47	0xbebfb069	-0.37439278
48	0x3ecd11cb	0.40052637
49	0x3e45fa34	0.19333726
50	0x3e93bf13	0.28856716
51	0x3cabf335	0.020989994
52	0x3eb6d5b6	0.35709924
53	0x3e48d349	0.19611849
54	0x3e772bca	0.24137798
55	0x3e4147e7	0.18875085
56	0xbe290edc	-0.16509575
57	0x3e6d9aa9	0.2320353
58	0x3e4642ab	0.1936137
59	0xbf2c43ab	-0.67290753
60	0xbee9bf96	-0.4565398
61	0x3df40b73	0.11916246
62	0x3eb6c03b	0.35693535
63	0x3e4bf33a	0.19917002
